…
, cfg=None, tracker=botsort.yaml, save_dir=runs/detect/train\r\n",
      "Downloading https://ultralytics.com/assets/Arial.ttf to '/root/.config/Ultralytics/Arial.ttf'...\r\n",
      "100%|â–ˆâ–ˆâ–ˆâ–ˆâ–ˆâ–ˆâ–ˆâ–ˆâ–ˆâ–ˆâ–ˆâ–ˆâ–ˆâ–ˆâ–ˆâ–ˆâ–ˆâ–ˆâ–ˆâ–ˆâ–ˆâ–ˆâ–ˆâ–ˆâ–ˆâ–ˆâ–ˆâ–ˆâ–ˆâ–ˆâ–ˆâ–ˆâ–ˆâ–ˆâ–ˆâ–ˆâ–ˆâ–ˆâ–ˆâ–ˆ| 755k/755k [00:00<00:00, 3.98MB/s]\r\n",
      "Overriding model.yaml nc=80 with nc=1\r\n",
      "\r\n",
      "                   from  n    params  module                                       arguments                     \r\n",
      "  0                  -1  1      1392  ultralytics.nn.modules.conv.Conv             [3, 48, 3, 2]                 \r\n",
      "  1                  -1  1     41664  ultralytics.nn.modules.conv.Conv             [48, 96, 3, 2]                \r\n",
      "  2                  -1  2    111360  ultralytics.nn.modules.block.C2f             [96, 96, 2, True]             \r\n",
      "  3                  -1  1    166272  ultralytics.nn.modules.conv.Conv             [96, 192, 3, 2]               \r\n",
      "  4                  -1  4    813312  ultralytics.nn.modules.block.C2f             [192, 192, 4, True]           \r\n",
      "  5                  -1  1    664320  ultralytics.nn.modules.conv.Conv             [192, 384, 3, 2]              \r\n",
      "  6                  -1  4   3248640  ultralytics.nn.modules.block.C2f             [384, 384, 4, True]           \r\n",
      "  7                  -1  1   1991808  ultralytics.nn.modules.conv.Conv             [384, 576, 3, 2]              \r\n",
      "  8                  -1  2   3985920  ultralytics.nn.modules.block.C2f             [576, 576, 2, True]           \r\n",
      "  9                  -1  1    831168  ultralytics.nn.modules.block.SPPF            [576, 576, 5]                 \r\n",
      " 10                  -1  1         0  torch.nn.modules.upsampling.Upsample         [None, 2, 'nearest']          \r\n",
      " 11             [-1, 6]  1         0  ultralytics.nn.modules.conv.Concat           [1]                           \r\n",
      " 12                  -1  2   1993728  ultralytics.nn.modules.block.C2f             [960, 384, 2]                 \r\n",
      " 13                  -1  1         0  torch.nn.modules.upsampling.Upsample         [None, 2, 'nearest']          \r\n",
      " 14             [-1, 4]  1         0  ultralytics.nn.modules.conv.Concat           [1]                           \r\n",
      " 15                  -1  2    517632  ultralytics.nn.modules.block.C2f             [576, 192, 2]                 \r\n",
      " 16                  -1  1    332160  ultralytics.nn.modules.conv.Conv             [192, 192, 3, 2]              \r\n",
      " 17            [-1, 12]  1         0  ultralytics.nn.modules.conv.Concat           [1]                           \r\n",
      " 18                  -1  2   1846272  ultralytics.nn.modules.block.C2f             [576, 384, 2]                 \r\n",
      " 19                  -1  1   1327872  ultralytics.nn.modules.conv.Conv             [384, 384, 3, 2]              \r\n",
      " 20             [-1, 9]  1         0  ultralytics.nn.modules.conv.Concat           [1]                           \r\n",
      " 21                  -1  2   4207104  ultralytics.nn.modules.block.C2f             [960, 576, 2]                 \r\n",
      " 22        [15, 18, 21]  1   3776275  ultralytics.nn.modules.head.Detect           [1, [192, 384, 576]]          \r\n",
      "Model summary: 295 layers, 25,856,899 parameters, 25,856,883 gradients, 79.1 GFLOPs\r\n",
      "\r\n",
      "Transferred 469/475 items from pretrained weights\r\n",
      "\u001b[34m\u001b[1mTensorBoard: \u001b[0mStart with 'tensorboard --logdir runs/detect/train', view at http://localhost:6006/\r\n",
      "Freezing layer 'model.22.dfl.conv.weight'\r\n",
…
